Mastering_PyTorch/cifar_model.pth (torch, 251568 bytes, 10 tensors)

cn1.weight f4 [6, 3, 5, 5]
000000 99 d5 be bd 10 21 40 be 77 67 fe 3d a3 5f b3 3e
       -0.09318084 -0.18762612 0.12422078 0.35033903
000010 df 08 5b bc 03 85 60 3e e1 1a 6d be eb ba 36 bf
       -0.013368814 0.2192574 -0.23154785 -0.71378964
000020 2a d7 16 3e f9 b9 f1 3e b2 11 13 3e 3f 05 e2 3e
       0.14730516 0.47212198 0.14362219 0.44144627
000030 8e 23 0d be 5f 74 3d bf 05 23 aa 3e b9 24 b2 bd
       -0.13783094 -0.74005693 0.33229843 -0.086984105
000040 9e 13 76 3e 1d 88 e9 3e 31 c1 61 be df 8d aa be
       0.24030921 0.4561166 -0.22046353 -0.33311364
000050 ca bf 10 be 05 b7 02 be d5 be 2b 3e da 87 e4 3e
       -0.14135662 -0.12765129 0.16772015 0.44634897
000060 6f 6d 0e bd 7e 68 8c 3d b5 60 57 be 23 cd 9f bd
       -0.034772333 0.06855868 -0.21032985 -0.078027986
000070 57 dc 87 3e ce 3b ce bd 6e ec a0 3e d5 e9 9e 3c
       0.26535293 -0.100700006 0.31430382 0.01939861
000080 5d 29 21 bf 50 04 8b 3c 21 93 ad 3e 44 82 cc 3d
       -0.6295374 0.01696983 0.33901313 0.09985784
000090 ab 51 f0 3e 60 4e 18 be 69 15 3c bf d9 05 16 3e
       0.46937308 -0.14873648 -0.7347017 0.14650668
0000a0 59 3f 79 bd cc 05 b7 3d db 40 f7 3e 40 b4 85 be
       -0.06085143 0.089366525 0.48291668 -0.26114082
0000b0 89 43 e5 be a8 23 c9 3c 2c 70 e9 bd 93 76 1c 3d
       -0.44778088 0.024553135 -0.11398348 0.03819902
0000c0 97 1a 5a 3e 0e 83 e1 be d1 2c 84 bd 93 64 50 be
       0.21299206 -0.440453 -0.064538606 -0.20350866
0000d0 03 18 21 be c1 88 4c 3e bb e7 2b 3b 5b bc 0c 3e
       -0.15731816 0.19974042 0.0026230651 0.13743727
0000e0 b9 77 b8 bc 15 86 d4 be a8 ea 75 bc d9 4b 67 3e
       -0.022518026 -0.41508546 -0.01500956 0.22587527
0000f0 f1 72 2d 3e 22 f1 ba 3e aa c8 55 be b8 8d 16 bf
       0.16938378 0.36512095 -0.20877329 -0.58809996
000100 37 00 f5 3d 31 59 f2 bd 9d aa 94 3e 17 65 15 3f
       0.119629316 -0.11833418 0.29036418 0.58357376
000110 cc 7b 19 be 14 fc eb be 46 97 cf bd 35 b8 74 3d
       -0.14988631 -0.46090758 -0.10136275 0.059745986
000120 27 4e 52 3e c2 ad cd 3e 25 67 99 be 2d 80 df be
       0.20537625 0.4017163 -0.29961506 -0.43652478
000130 5d 57 13 be 1d b2 cf bd a4 b5 1b be 33 a3 a9 be
       -0.14388795 -0.10141394 -0.15206009 -0.33132324
000140 df b9 83 3d 88 73 e5 3c 74 2d d4 be 78 3f 36 be
       0.064319365 0.028009191 -0.41440928 -0.17797649
000150 7d c0 8b 3d 80 26 86 3d 0c 2c 82 be 55 0c e4 bd
       0.068238236 0.06550312 -0.2542423 -0.11135165
000160 d2 44 d1 3e d1 0a f5 3d 16 eb ea 3d a9 fa 65 3e
       0.40872818 0.11964954 0.1147062 0.224589
000170 70 d2 39 3f ed 22 ae 3e d3 e6 55 3e 03 8c 09 3e
       0.7258673 0.3401102 0.20888834 0.13432316
000180 f2 71 cc 3e 05 a0 de 3d a0 39 ee bd 0a 9b 85 bd
       0.39930683 0.10870365 -0.11632085 -0.06523712
000190 80 aa 73 3d 67 98 8d 3e 6d 45 65 3e 6f e8 57 3d
       0.059488773 0.27655336 0.22389765 0.0527119
0001a0 89 e0 15 3d a4 9a c5 3d 78 e3 f0 3c 4d 77 ac be
       0.036591087 0.09648636 0.02940534 -0.3368477
0001b0 19 34 d6 3c 1a 7c 2c 3e e7 b0 0c be 50 e4 91 be
       0.026147889 0.16844216 -0.13739358 -0.284945
0001c0 f2 31 a4 bc 3c 5c 9e 3e 0f 83 dc bd 62 68 a2 be
       -0.020043347 0.30929744 -0.10767185 -0.31720263
0001d0 9d 27 a1 bc 32 96 af 3e e6 f8 23 3d b1 37 a3 be
       -0.01967221 0.34294277 0.04003229 -0.31878427
0001e0 8a 14 7d be 45 3d a2 3d e8 b1 1d be e0 f4 5f be
       -0.24714866 0.079218425 -0.15399897 -0.21870756
0001f0 f0 3c 44 be 74 2a 97 bb bc 26 1b 3e fa 3d 25 bc
       -0.19163871 -0.004613215 0.15151495 -0.010085577
000200 e6 2b 99 bc 5b 88 ff bc c6 cb 6c 3e 66 91 31 bd
       -0.01869769 -0.031192949 0.23124608 -0.043351553
000210 81 d6 90 be 58 ec 87 3d 1f a8 77 3e a8 94 05 be
       -0.28288653 0.06636876 0.24185227 -0.13044989
000220 62 46 ce be df d2 12 be 74 16 d9 3e b5 84 2a be
       -0.40288073 -0.14338253 0.42399943 -0.16652186
000230 a5 58 c1 bd cc eb 52 bd 69 09 8e 3e 6a a5 10 3e
       -0.09440736 -0.051494405 0.27741554 0.141256
000240 76 aa 10 be 94 20 07 3e c2 16 58 3e 9f b1 0b 3c
       -0.14127526 0.13196021 0.21102431 0.008526235
000250 90 27 26 be 15 24 d4 3d cb 0b 41 bc c1 90 ab 3e
       -0.1622603 0.103584446 -0.011782597 0.33508876
000260 a8 1c 11 3f 40 a0 ba 3e cf c1 a8 3d c4 9f 88 3e
       0.5668435 0.36450386 0.08240091 0.26684391
000270 86 e6 ef 3e b8 7e 2c 3d a8 54 9b bd 39 bb f4 3d
       0.46855563 0.042113036 -0.07584506 0.119497724
000280 a3 ee e0 3e 7f a2 97 be c7 07 0c bf 7c f0 7c bd
       0.43932065 -0.29616162 -0.5469937 -0.06175278
000290 7e 4b 09 3e aa dd 9e bd c1 7d 0d bf 89 04 03 be
       0.13407704 -0.07757123 -0.5527001 -0.12794699
0002a0 30 9f 34 3e f4 7c ea ba 9a 60 0b bd d9 ac 77 be
       0.1763885 -0.0017890022 -0.034027673 -0.2418703
0002b0 93 56 9a 3c 0c 68 48 be ae e1 6f be 0a 51 c6 bc
       0.01884011 -0.1957094 -0.23425934 -0.024208564
0002c0 90 89 8f 3d 14 26 5e 3a 89 46 98 be 9b fa 78 be
       0.0700866 0.0008474302 -0.29741314 -0.24314348
0002d0 2e 13 b8 3e d4 0c 8a 3e 49 9d e5 be ea d4 1b bf
       0.35952133 0.26962912 -0.44846562 -0.60871756
0002e0 29 f4 c9 be 17 96 69 3e 2f 6c d0 be 6d 42 26 bf
       -0.39444092 0.22811161 -0.40707538 -0.6494511
0002f0 08 3c 3e be f4 20 0c bd 8d cd e9 bc 24 0e 9a be
       -0.18577588 -0.034211114 -0.028540397 -0.30088913
000300 cf 7e 4e bd 1a ba 59 3e c8 45 8e 3b 53 60 90 3e
       -0.050413903 0.21262398 0.0043418147 0.2819849
000310 59 9d 1e 3e 36 6b 85 3e 3f 72 e2 3d 84 c7 58 3d
       0.15489711 0.26058358 0.11056947 0.052924648
000320 b6 e7 6c be f9 79 d4 bc 7f 37 48 bd 2e 64 a7 bd
       -0.23135266 -0.025937067 -0.04888105 -0.08173405
000330 50 3e 1e 3e 04 8d c7 3b ba c0 8f 3e e9 9c d3 bd
       0.15453458 0.0060898084 0.28076726 -0.103326626
000340 d4 f6 67 be 32 b1 64 3b 24 a1 a4 3d 15 87 77 be
       -0.22652751 0.0034895656 0.08038548 -0.24172623
000350 37 05 96 be ad 8a ab bc 23 89 93 3e ed 51 3c be
       -0.29300854 -0.02094015 0.28815565 -0.18390627
000360 1f f5 8e be 80 a8 32 3e d9 ab 92 3e 40 66 6f 3e
       -0.27921388 0.1744709 0.28646734 0.23378849
000370 9a c9 ab bd 08 46 0c 3d f3 ab 97 3e 5c 78 12 3e
       -0.08388062 0.034246475 0.29623374 0.14303726
000380 b3 e6 bd 3d 20 68 41 3d 84 d6 88 bc 56 61 c4 3c
       0.09272518 0.047218442 -0.016703852 0.023972195
000390 61 38 8f 3d cc 53 35 3d ce 7f 67 bd 4a 57 7b 3e
       0.06993175 0.044269368 -0.05651837 0.24545017
0003a0 87 e1 97 be 8d f9 98 3e a3 5a 12 be fb 34 d7 be
       -0.2966425 0.29877892 -0.14292388 -0.42032608
0003b0 8f 18 42 3f cd cc 4b bf ea 90 d1 3d 80 d7 84 3b
       0.75818723 -0.79609376 0.10232718 0.00405401
0003c0 9b 1e 89 be 56 3c 56 3f b2 3f 82 bf 9e b3 cb 3c
       -0.26781163 0.83685815 -1.0175688 0.024865922
0003d0 97 bb 35 3e 3b 96 ad 3d 97 6a 81 3e b7 81 e4 be
       0.17747341 0.0847592 0.25276634 -0.44630215
0003e0 f9 ad a9 3e ab b9 3e 3e 8d 40 63 bd 8b f1 55 3d
       0.33140543 0.18625514 -0.055481482 0.052232306
0003f0 85 d9 43 be 11 a3 f4 3d 78 2b 0e 3e 2b 3d 09 be
       -0.19125946 0.11945165 0.1388377 -0.1340224

cn1.bias f4 [6]
000000 5f 36 95 be 9f 92 32 3d c1 7a 88 be c6 8e 02 be
       -0.29143044 0.04359686 -0.26656154 -0.12749776
000010 f9 3f b6 3d dc d3 a8 be
       0.088989206 -0.32974136

cn2.weight f4 [16, 6, 5, 5]
000000 d9 8a 49 3e a3 ba 2f 3f 1c 03 1f 3f 05 3e 21 3f
       0.19681872 0.6864416 0.6211412 0.6298526
000010 ff 5a 76 3e 94 de a9 3d 9b 55 bc 3e 9f c1 ea 3e
       0.2405815 0.082944065 0.36784062 0.45850846
000020 59 da 07 3f e8 b3 be 3e 26 92 ba 3e 38 ad a2 3e
       0.5306755 0.37246633 0.36439627 0.3177278
000030 ad a4 70 3e 03 16 a0 3e 73 c0 10 3f 6e be 7c bd
       0.23500319 0.31266794 0.56543654 -0.061705045
000040 28 7f 86 3e 9b 40 34 3e 14 fe 16 3e bc 6c 25 3e
       0.26268888 0.1760277 0.1474536 0.1615476
000050 25 ad 1f bd 40 ed c8 bb 0a 20 10 3e 03 8c a5 3e
       -0.038983483 -0.006131798 0.14074722 0.32333383
000060 fb 35 97 bd ad 84 d7 3c 4f e9 88 be 68 81 2c be
       -0.07383343 0.026308382 -0.267405 -0.1684624
000070 89 16 04 3d 1f f1 44 3c 2e 62 e4 3c a7 2f f8 bb
       0.032248054 0.012020378 0.027878847 -0.00757404
000080 f5 58 9d be 81 ba bd be 38 0c b9 be 46 f3 9a bd
       -0.3073193 -0.37056354 -0.36142135 -0.07565932
000090 82 8d 99 3a a2 ab f2 3d 84 c6 44 be 86 f4 96 be
       0.0011715146 0.118491426 -0.19216353 -0.29483432
0000a0 4f c6 b1 3c 02 06 c8 3d 0a fc 38 3e f3 f6 3e 3e
       0.021701006 0.09766771 0.18064895 0.18648891
0000b0 60 74 0f be 22 b7 89 3e d1 f6 5c bc e5 3c 19 bd
       -0.14009237 0.26897532 -0.01348658 -0.03741159
0000c0 58 05 23 3e 65 34 f6 3d 7c 28 f3 bd 56 a9 7d be
       0.15920007 0.12021712 -0.11872956 -0.24771628
0000d0 80 f3 76 be 86 f1 77 be d0 40 19 bc c2 c0 d2 3d
       -0.24116325 -0.24213228 -0.009353831 0.10290672
0000e0 c8 78 03 3e f9 9e a1 bd 33 a5 ca be d6 5d fa be
       0.12839043 -0.0789165 -0.39579162 -0.48899716
0000f0 46 68 15 be d1 f4 87 3d 52 3c fd 3d a1 3a 8c 3b
       -0.14590558 0.06638492 0.12365021 0.00427945
000100 66 70 ca be 69 fe 39 be f5 20 a5 bd c6 89 1c 3d
       -0.39538878 -0.18163456 -0.08062927 0.03821733
000110 1e 91 06 3e df 10 2e 3d eb 43 c5 3d a3 5b fd 3c
       0.13141295 0.04249656 0.09632095 0.030927485
000120 38 2f 7d 3b 7c 14 e2 3d 10 d4 7a 3d e0 e2 91 3c
       0.003863288 0.11039063 0.061237395 0.017808378
000130 ce e7 f9 be 4e 9d 2e be 90 5b 08 3d d8 cc 09 3d
       -0.48809665 -0.17052194 0.033290446 0.03364262
000140 05 59 4f bd 06 a6 eb be 1b 5b 06 bf 32 1e 87 be
       -0.050622005 -0.46025103 -0.52482766 -0.26390225
000150 00 fb d4 bd 5d cc 21 bd 75 94 c7 be 68 8b d7 be
       -0.10399437 -0.039501537 -0.3898045 -0.42098546
000160 9c 5c ee be 2f 2f 54 be 65 46 58 bd 0a 74 2a be
       -0.4655503 -0.20721124 -0.05280151 -0.16645828
000170 99 86 0e be fc f1 d4 be d2 b5 73 be 4f 9b 60 3d
       -0.13918532 -0.4159087 -0.23799828 0.054835614
000180 36 35 21 be a6 2c 69 bd c1 b1 a2 bd c9 f9 f0 bd
       -0.15742955 -0.056927346 -0.0794406 -0.11766393
000190 f1 20 59 3e c3 c8 6a bd e6 32 8a be e4 4d aa be
       0.21203972 -0.057320368 -0.26991957 -0.3326255
0001a0 d7 2c 11 3e 54 26 f8 3c a9 b7 87 3e 48 12 c3 3d
       0.14177261 0.030291714 0.2650731 0.09524971
0001b0 6e e7 4c be 99 4f 03 bf e2 41 26 be 94 b7 18 bd
       -0.20010158 -0.5129333 -0.1623607 -0.03728445
0001c0 26 9c a6 3e 49 8d 59 3e bd c8 b5 be b9 35 1a 3d
       0.32541007 0.21245302 -0.35504714 0.03764889
0001d0 43 08 6a be 25 56 74 bd 2c 62 8e 3e 0c 8d 40 3e
       -0.22854714 -0.059652466 0.27809274 0.18803805
0001e0 8b d0 cd 3d b1 28 65 bd 12 bd 19 be 61 ad 6d be
       0.10049542 -0.05594701 -0.15013531 -0.2321067
0001f0 2f 71 bd 3d e3 f6 9e be f1 96 3e 3d bf c5 24 3a
       0.09250104 -0.31047735 0.046530668 0.000628557
000200 37 a2 51 3d ee ea ee bd ee 30 e5 be 54 a1 92 be
       0.05118009 -0.11665903 -0.44763893 -0.2863871
000210 a3 eb 8c 3c 71 be 81 3e 8d 29 6d 3e ca 81 e9 3d
       0.017202204 0.25340608 0.23160382 0.114017084
000220 2f bc 8a be 82 c5 f3 be 14 8e 9e 3d 9e 4b 1c 3f
       -0.27096698 -0.47611624 0.07741943 0.6105288
000230 2a 91 66 3e 47 e9 74 bc 7b f8 65 be df 8a e9 be
       0.22516313 -0.014948196 -0.22458069 -0.45613763
000240 91 11 b8 3e 5e a0 56 3c 4c 10 8b 3b f5 70 0d be
       0.35950902 0.013099758 0.004243886 -0.13812621
000250 0c f6 b9 bd 2d 99 39 bd 95 41 b1 3e 04 5c 11 3e
       -0.09080133 -0.045312095 0.34620348 0.14195257
000260 e3 33 85 3e 28 ea a0 3e 89 29 1f 3e 0a 86 cd bc
       0.2601615 0.31428647 0.15543188 -0.025088329
000270 46 2f 0f bc c2 05 5f 3e 63 82 44 3d 21 d0 47 3d
       -0.008739298 0.2177954 0.04797591 0.04878247
000280 b4 3d 91 bc 2d 85 49 bc 25 20 60 3e 82 f9 5e 3e
       -0.017729618 -0.012299818 0.21887262 0.21774867
000290 60 39 a8 3d 45 96 6a 3d 01 8f a2 3c a4 f0 b9 3e
       0.082140684 0.057272214 0.01984358 0.36316407
0002a0 47 57 9b 3e 40 f9 98 3d a7 36 96 3e 43 a4 d6 3d
       0.30340025 0.07469416 0.2933857 0.10480549
0002b0 53 b3 57 3e 88 42 7e 3e bb e9 8e bd b6 57 58 3f
       0.210645 0.24830067 -0.06978174 0.84508836
0002c0 d5 e6 45 3f f3 c9 5b 3f 83 8e ad 3e 2f f6 fb bd
       0.77305347 0.85855025 0.3389779 -0.12302815
0002d0 3e 2f 67 be b9 bd f1 3e be 12 d4 3e 5e ee d6 3c
       -0.22576615 0.4721506 0.4142055 0.02623671
0002e0 67 46 d9 be 8a 43 0e bf 42 c6 94 3e eb 28 74 3e
       -0.42436525 -0.55571806 0.2905751 0.23843734
0002f0 67 67 1e be 20 e0 c4 be b9 fe b0 be d5 9b 8b 3e
       -0.15469132 -0.38452244 -0.34569338 0.27267328
000300 92 aa da bc fb ca 0b bd e7 d1 79 bd 77 f2 6f be
       -0.026692662 -0.034129124 -0.060991194 -0.23432337
000310 89 56 e1 3d 04 28 08 3e 99 4d fe 3c 78 c6 56 be
       0.110028334 0.13296515 0.03104286 -0.20974147
000320 3b 50 64 3e ab c7 d2 3e 01 0b 81 3d fc f2 4f be
       0.2229623 0.4116796 0.06300927 -0.20307535
000330 21 20 be 3d 6c 42 97 bd f0 25 f4 3e 01 29 b8 bd
       0.09283472 -0.07385716 0.47685194 -0.08992196
000340 00 23 11 be 04 57 07 3e fb f2 6a be f6 7f d1 3e
       -0.14173508 0.13216788 -0.22944252 0.4091794
000350 d1 cd 3e bf 17 7e ba 3e 16 26 5f bc 0c 21 ff 3e
       -0.745328 0.36424324 -0.01361992 0.498299
000360 bb e1 8a 3d 66 ea 12 bf 0e 68 b3 3e 75 f8 3e bd
       0.06781336 -0.57388914 0.35040325 -0.046623666
000370 8a 9b 30 3f 6d dd 97 b9 e2 00 44 3c d1 6c db 3e
       0.68987334 -0.0002896594 0.011963101 0.42856458
000380 9a f4 07 3a e9 5c c8 bc b7 78 15 be 66 ff b2 be
       0.000518629 -0.024458366 -0.1459683 -0.3496048
000390 ad a1 b3 be 99 4f 6c be 84 00 dd bd 2e bb d7 bd
       -0.35084286 -0.23077239 -0.10791114 -0.105337486
0003a0 39 99 02 be f2 cd 92 bc 17 37 fc bc 14 8a 36 3d
       -0.12753762 -0.017920468 -0.030787988 0.044565275
0003b0 cb de c6 3d a6 64 e3 3d 7b 8b 87 bc 50 a9 3a bd
       0.09710463 0.111031815 -0.016546002 -0.045571625
0003c0 3d 1f 28 3d 72 2c 7a 3d 20 1e 31 bd dc 68 9f bd
       0.041045416 0.061077543 -0.04324162 -0.07783672
0003d0 6e c3 9b bd 7c 88 7c 3d 3e 01 8f bd f4 71 9d bd
       -0.07605635 0.0616536 -0.06982659 -0.076877505
0003e0 9b 3d cf bc 0d dc 14 bd 57 cc af bd 10 3e 91 bc
       -0.02529793 -0.03634267 -0.085838966 -0.017729789
0003f0 b5 22 9a be 03 28 f5 bd 48 c7 75 be c3 c3 60 bc
       -0.30104604 -0.11970522 -0.24001801 -0.013718548

cn2.bias f4 [16]
000000 5c ac 34 3f 6f 88 87 be be 4c 1f 3f 0a 19 4e 3c
       0.705755 -0.26471278 0.62226474 0.012579212
000010 31 4b 79 3f a5 d6 b4 bf 32 a0 67 3f a8 a2 dd bd
       0.9738036 -1.4128004 0.90478814 -0.1082204
000020 cf 99 b4 3f 60 54 43 be 7e 31 f6 3e 7f 41 97 bf
       1.4109439 -0.19075155 0.48084635 -1.1816863
000030 3f ec c5 bc fe e4 a0 3f d5 9f dc 3f c6 d5 77 3f
       -0.024160502 1.2569883 1.7236277 0.9681057

fc1.weight f4 [120, 400]
000000 ca a9 6d 3f d9 b9 15 3f 9e 04 93 3e c6 93 18 bf
       0.928372 0.58486706 0.2871446 -0.59600484
000010 32 f2 93 bf e6 c2 8c 3e c8 de 2e 3e 98 54 ed 3e
       -1.1558287 0.27492446 0.17077172 0.46353602
000020 60 52 d4 3e 91 95 d5 3e ee c2 58 be 5c 8e a4 bd
       0.41469097 0.41715673 -0.2116811 -0.080349654
000030 bc 24 a4 3c 7a cb 8d 3d 7d ff ab bd a4 83 f6 bd
       0.020037048 0.06923576 -0.0839834 -0.12036827
000040 93 ea 44 3c db a6 52 3b 79 ce 19 be 76 cf a6 be
       0.0120188175 0.003214291 -0.1502017 -0.32580155
000050 f6 b3 8f 3b d0 ae c0 3e 7d 4b ce 3e fa 50 38 3e
       0.0043854667 0.3763337 0.40291968 0.1799964
000060 86 03 bb 3d 07 d7 46 bd 69 c4 8a bd 05 00 ed 3d
       0.091315314 -0.04854491 -0.067757435 0.11572269
000070 12 6f ef 3e f4 c8 5a 3f 01 c4 01 bf 76 f2 1e bf
       0.46764427 0.8546288 -0.50689703 -0.62088716
000080 30 ef c9 be 22 14 9f be 94 be 68 be 9a 61 a4 3e
       -0.39440298 -0.31070048 -0.2272895 0.32105714
000090 d4 ab 69 bd 57 c9 5f be 98 d7 2a 3d b6 9a 2c 3e
       -0.057048634 -0.21854149 0.041709512 0.16855893
0000a0 8e 87 f7 3e f2 b7 82 3e b7 82 30 3e 6b f9 9d 3e
       0.48345608 0.25530964 0.17237364 0.30854353
0000b0 ea dc 43 be 4f 36 df 3e 69 9f 25 3e 08 f6 89 3e
       -0.19127241 0.43596122 0.16174091 0.2694552
0000c0 22 aa 80 3d a8 47 6b 3e b0 59 c6 bd 5b 93 f7 bd
       0.0628245 0.22976553 -0.09685075 -0.12088653
0000d0 8a a0 28 be ec 96 95 3c 09 00 52 3e 3e 72 f1 3e
       -0.16467491 0.018260442 0.20507826 0.47157472
0000e0 e8 04 cd 3e 99 35 05 be 6c 72 3d be 7d 7d e6 3e
       0.40042806 -0.13008727 -0.1850068 0.45017615
0000f0 3d 7e ca 3d 29 37 d8 bc fa 3f 25 3d 90 14 d3 3d
       0.09887359 -0.02639349 0.040344216 0.10306656
000100 8c 72 83 3e 45 f0 a0 bd 96 27 c4 3c 64 73 bf 3e
       0.2567333 -0.07858328 0.023944657 0.37392724
000110 8b b5 25 3d 19 12 38 be aa 4e 36 be c2 61 fc bd
       0.040456336 -0.17975654 -0.17803445 -0.12323333
000120 32 32 60 3e b5 55 c7 3e b1 7f d2 3d 1b bb c2 3e
       0.21894148 0.38932577 0.102782615 0.38033375
000130 70 7d c9 3d 37 15 3d be 55 cd 8e be 28 d4 94 bd
       0.098383784 -0.18465124 -0.2789103 -0.07267028
000140 4b e8 24 bc af 0c 21 bf 89 a3 36 bf 7d 5e d3 be
       -0.010065149 -0.6290998 -0.71343285 -0.41283026
000150 e3 96 86 3d be 11 d7 3e 80 c4 6d be 16 45 a5 be
       0.06571748 0.42005724 -0.2321949 -0.3227927
000160 19 82 12 bd 8d 99 94 3e b0 a4 1d 3f 24 3f e9 3d
       -0.035768602 0.290234 0.6157942 0.11388996
000170 a5 4d 08 bb 62 c4 f1 bd a8 06 b5 3e f3 9f 1c 3f
       -0.0020798233 -0.11805035 0.3535664 0.61181563
000180 42 87 12 3f bd 6d 04 3e 7d 82 65 3e 72 e3 ae 3e
       0.5723764 0.12932487 0.22413059 0.34157902
000190 39 42 6f 3e 77 f4 f1 3b 22 22 92 bd c3 96 c2 3e
       0.23365106 0.007383879 -0.071354166 0.38005647
0001a0 33 03 9b 3d 92 fe b4 3e 24 82 9e 3e 17 72 f9 3e
       0.075689696 0.35350472 0.30958664 0.48719856
0001b0 5f 78 38 3e 10 51 19 3e be e5 ed 3e 8a 40 a8 3e
       0.18014668 0.14972329 0.46464342 0.3286174
0001c0 bf 5f 14 3f 6b 53 bd be 8d a2 ab be ea f8 eb 3e
       0.57958597 -0.36977705 -0.33522454 0.46088344
0001d0 be 10 64 3e 98 f8 6a 3e 52 cf b0 be 62 15 22 bf
       0.22272012 0.22946393 -0.34533173 -0.6331388
0001e0 2c 02 0a 3f be 56 38 3f 41 cb cf 3e 9a d1 9d 3e
       0.53909564 0.7200736 0.40584758 0.30823976
0001f0 d6 e8 dd 3c 72 9d 01 bf 40 a8 83 be eb e5 ea bd
       0.027088564 -0.5063087 -0.25714302 -0.114696346
000200 53 ac 19 bd 32 1a 88 bf d0 a2 97 be f7 88 cd 3e
       -0.037517857 -1.0632994 -0.29616404 0.40143558
000210 18 64 a0 3e 94 0d 4f 3e 5f 68 d4 be 00 82 e9 bd
       0.31326365 0.20220023 -0.4148588 -0.11401749
000220 60 d4 0c 3e 20 bf ec bd 99 d3 c1 be b2 d7 20 bf
       0.1375289 -0.11559892 -0.3785675 -0.62829125
000230 28 69 ce be 3f 91 2d be 00 8f ae be 6a ae f8 be
       -0.40314603 -0.16949938 -0.34093475 -0.48570567
000240 aa 00 68 bf 89 f1 25 bf ba 1f 48 be ea 49 b6 be
       -0.90626013 -0.6482168 -0.19543353 -0.35603267
000250 01 c8 3b bf 9e 25 8f bf 17 ef 74 3d 03 07 14 3e
       -0.73352057 -1.1183355 0.059798326 0.144558
000260 96 c0 ab 3d ac 99 63 3e ec 8a a7 3d 5f 6d d1 3e
       0.08386342 0.2222659 0.08180794 0.40903756
000270 f7 87 7a 3d ca 40 84 3d 8f 86 5f be 15 93 4a 3c
       0.061164822 0.0645767 -0.21828674 0.012364169
000280 a0 d2 07 3e da 91 a9 3c 7e fc 88 3e 29 44 65 3e
       0.13263941 0.02069943 0.26755136 0.22389282
000290 e9 22 9e 3e fc 82 3a 3f 88 07 03 3f 36 ca 0f 3b
       0.3088601 0.72856116 0.51183367 0.0021940595
0002a0 73 c7 fc bd ce 06 a0 3d e8 17 2a 3f 0a b1 15 3f
       -0.123427294 0.07813798 0.6644273 0.58473265
0002b0 11 a4 00 3e 4b fa 32 3e 4a f3 32 3e fd 64 c3 3e
       0.12562586 0.17478292 0.1747562 0.38162985
0002c0 35 c4 e8 bd fe 6e 0e bf 5b ce bc be 2b 51 42 3c
       -0.113655485 -0.5563811 -0.36876187 0.011860172
0002d0 9e e7 a9 3e 78 b3 48 3d ec cb 18 be 0c 70 c3 be
       0.33184522 0.04899928 -0.1492154 -0.38171422
0002e0 86 9a 37 be c0 de 41 3e 03 31 70 3e 74 0f 14 3e
       -0.1793004 0.18932629 0.23456196 0.1445902
0002f0 9e 40 18 be d3 fc 87 3e dc b0 a3 3e 1b 17 fb 3e
       -0.148684 0.26560077 0.3197087 0.49041066
000300 a6 7a 57 3d 37 66 da bd 19 20 e5 3d 23 00 89 3e
       0.0526072 -0.10664027 0.11187763 0.26757917
000310 42 e5 5a 3e 09 7f f4 bd 6b 6d 90 be 83 c8 0f 3d
       0.21376517 -0.119382925 -0.2820848 0.035103332
000320 67 a6 76 3f e0 59 17 3f b7 f3 27 3e d4 51 c7 3d
       0.9634766 0.59121513 0.16401564 0.09732404
000330 ec 63 bc 3e e8 15 14 3f e3 f0 e5 3e 65 16 60 3e
       0.36794984 0.57845926 0.44910344 0.21883543
000340 36 59 6d 3d 15 87 96 3e b9 34 3e 3e 27 88 38 3e
       0.057946406 0.29399934 0.185748 0.18020688
000350 db e9 dd bd be c3 b6 be 3e 90 36 be 95 c6 43 bd
       -0.1083562 -0.35696214 -0.17828462 -0.047796804
000360 a4 01 85 be 39 5e e0 be 24 a0 cc bd b3 07 10 be
       -0.25977814 -0.43821886 -0.09991482 -0.14065437
000370 25 c0 89 3e 10 1f ff 3d b1 f8 4d be c8 09 66 be
       0.26904407 0.124570966 -0.201144 -0.22464669
000380 58 23 0e 3d a3 53 0f be 82 7c 1c 3e 30 94 ba 3e
       0.034701675 -0.13996749 0.15281871 0.36441183
000390 c5 aa 24 3d a3 ab 73 bd 59 97 f1 3c 2d b7 6b bd
       0.04020192 -0.059489857 0.029491113 -0.057547737
0003a0 b4 6d cd bd 4b 86 26 3e 65 c4 23 be 68 00 fe 3d
       -0.1003069 0.16262166 -0.15992887 0.12402421
0003b0 3b ca 46 3e 51 d4 a4 3d 56 3a 92 be 0e 43 7d 3c
       0.19413082 0.08048309 -0.28560132 0.015457882
0003c0 63 d6 c9 3e 44 e4 c5 bb db 15 33 bc 4a 2e bf bd
       0.39421377 -0.0060391743 -0.010930504 -0.09335001
0003d0 9a 8d 21 bd 61 a2 9f 3e 8e e3 98 3e a6 60 71 be
       -0.039441682 0.31178573 0.2986111 -0.23572025
0003e0 0f bf 8b bd f3 09 12 3e b1 45 ed 3d db 85 4a bd
       -0.06823551 0.14261608 0.11585558 -0.04944406
0003f0 b5 07 9c be c6 15 86 3d be 8f 9d 3e a0 ce 25 bf
       -0.3047463 0.06547122 0.3077373 -0.6476841

fc1.bias f4 [120]
000000 15 c4 1f 40 68 77 8a 3f b1 90 2b bd 04 4a 1a 40
       2.496343 1.081769 -0.041886035 2.4107676
000010 e0 93 27 be 54 8d 95 bd ae ca 51 be c1 f5 bd bd
       -0.16365004 -0.07302347 -0.20487472 -0.092753895
000020 81 43 f4 bd 4e 06 9a bd 1e d2 94 bd f5 f4 92 3d
       -0.11926938 -0.07520734 -0.07266639 0.07175628
000030 b3 49 85 bd d8 b8 d5 bd 87 62 cf 3e dc 1f c0 be
       -0.06508198 -0.10435647 0.40504858 -0.37524307
000040 c2 1d 95 3f 8f 2c e6 bd 41 80 c9 ba b8 51 1f bd
       1.1649706 -0.112389676 -0.0015373306 -0.038896292
000050 b8 19 0b 40 31 93 95 be 41 e9 d7 3f 39 85 0f 3f
       2.1734447 -0.2921386 1.6868058 0.56062657
000060 5f 08 82 3f 56 b0 b2 be 30 62 47 be 22 ec c8 3f
       1.0158805 -0.3490016 -0.1947105 1.5697062
000070 26 36 e1 3f 01 1a 95 bd ae b7 7d bd 6b 34 65 3f
       1.759465 -0.072803505 -0.06194275 0.8953311
000080 f7 f6 59 bd b3 28 b4 3f 50 59 7c 3e a1 3e ea bd
       -0.05321404 1.407492 0.24643445 -0.11437727
000090 0a ff 9c 3c d1 33 15 bc ef 7e d6 be 7d 3b 0b 3f
       0.01916458 -0.009106592 -0.41893718 0.54387647
0000a0 fb be 71 bf 86 0e c8 3f 4b d9 5b 3f f5 b4 89 3f
       -0.9443204 1.5629432 0.8587844 1.0758349
0000b0 73 f4 d5 3f 64 05 87 bd 5d eb aa bd fa cf a8 bc
       1.6715225 -0.06592825 -0.08345673 -0.020606983
0000c0 bd 66 a3 3e 46 db b5 bc f5 10 02 40 4e 73 71 3f
       0.3191432 -0.022199284 2.032285 0.94316566
0000d0 32 32 aa be 1c 0e 6f bd 70 fd 58 be 93 71 85 bd
       -0.3324142 -0.058363065 -0.21190429 -0.06515803
0000e0 51 e2 b8 be 51 0f a6 3f 45 17 11 be b1 1e 49 bd
       -0.36110166 1.2973424 -0.14169033 -0.049101535
0000f0 5f 93 5b bd e9 c3 cd 3e 32 37 40 3d 09 eb a9 3e
       -0.05360734 0.4018853 0.04692764 0.3318713
000100 58 83 93 be 09 32 8a 3f 92 2f 33 40 4a 0d c8 bd
       -0.28811145 1.079652 2.7997785 -0.0976816
000110 41 54 26 bf 16 6f 3d bf 14 ad 42 3e e7 8a 1d bf
       -0.6497231 -0.7399763 0.19011337 -0.61540073
000120 31 37 1c 40 46 10 00 40 86 c5 49 3e d7 bb 0c bf
       2.4408686 2.0009933 0.19704255 -0.5497412
000130 0a 1f a7 3f c0 61 1d bd 50 7c 9d 3c 01 7f ac 3e
       1.3056347 -0.0384233 0.019224316 0.33690646
000140 ff c8 d1 bd d6 cd 72 bf 4f c6 f2 3f e6 72 38 40
       -0.10243415 -0.9484533 1.8966769 2.8820128
000150 09 e1 1c bd 58 e4 45 bd 58 86 07 be 70 3a 56 3d
       -0.038300548 -0.04831347 -0.13234842 0.052301824
000160 66 c1 1c bf 32 99 d1 3f f2 7a c9 3e 54 5d 29 bd
       -0.612326 1.6374876 0.39351612 -0.04134877
000170 e1 b6 92 3f cd d8 80 3f 67 07 ab bd ec f1 39 3e
       1.146206 1.0066162 -0.08351021 0.18158692
000180 9c 5a 85 bf 8b 9a 46 be bf a5 dc 3e f7 56 36 3c
       -1.0418277 -0.19394891 0.43095204 0.0111291325
000190 f0 db 0d 3d 50 cc c1 3f ac 5f c2 bd f1 c7 6d 3f
       0.034633577 1.5140476 -0.09490904 0.9288321
0001a0 d4 42 60 bd fa ad 00 bd e9 4a 7a bb a8 9b 3e bf
       -0.054751232 -0.031415917 -0.0038191623 -0.7445626
0001b0 23 76 da bd e5 da 56 3d 46 d7 01 bd 55 9a 03 be
       -0.10667064 0.052454848 -0.03169944 -0.12851842
0001c0 2b 07 4e be 40 ce 51 bd b6 4d 80 3f 84 13 50 be
       -0.20119922 -0.051222086 1.0023715 -0.20319945
0001d0 23 a2 da 3e b9 4e 5c bf 53 48 bc bd d3 b8 a4 bd
       0.42701825 -0.8605762 -0.09193482 -0.08043065

fc2.weight f4 [84, 120]
000000 15 7b 3e be ba 2b b6 3e 64 92 db 3d 9c 04 78 bc
       -0.1860164 0.35580236 0.10721281 -0.015137818
000010 08 3e 3c 3d ff b9 aa be 5d 19 ed be f0 3b 2e bd
       0.045957595 -0.3334503 -0.46308413 -0.04253763
000020 e0 00 30 3d e0 0c a7 bc 69 70 c2 bc 09 b0 1c 3e
       0.042969584 -0.020391881 -0.023735242 0.15301527
000030 38 d9 cb 3d 5d e9 33 3d 38 23 02 3f a4 4d 29 be
       0.099535406 0.043923724 0.5083499 -0.16533524
000040 16 2c 8a 3e b1 06 c1 3c 30 78 f0 bc 43 35 22 3d
       0.2698676 0.023562761 -0.029354185 0.039601576
000050 e2 ec ff 3d 3f 79 fe bd 83 21 e9 3e d6 d4 1d 3d
       0.12496354 -0.124254696 0.4553338 0.038533054
000060 6a 04 e5 3e 2a 4b b6 3e 30 68 9e 3e c8 32 fa 3b
       0.4472993 0.3560422 0.30938864 0.007635448
000070 b3 0b 1a bf fa fe 19 bd bf 0d 83 3d 67 6b 12 3d
       -0.601741 -0.03759668 0.06399106 0.035746958
000080 a0 77 c6 3d da 97 b1 3d 81 dd 9e 3e b7 c9 10 be
       0.096907854 0.086715415 0.3102837 -0.14139448
000090 9f 35 9b bd ce 5e 26 bd 9a 4e 48 3e f0 88 c9 3e
       -0.07578587 -0.040617757 0.19561234 0.39362288
0000a0 27 e3 ed 3d e1 31 19 be a1 0f a5 be ba 39 05 3e
       0.116155915 -0.14960434 -0.32238486 0.13010302
0000b0 03 df 76 3d e9 0a 11 bd c4 1e f4 bc c3 25 35 bc
       0.060271274 -0.035410795 -0.029799826 -0.011056366
0000c0 e9 d1 ed bd 4d 5b 4c 3b 97 c4 c5 3d 31 e9 a8 3e
       -0.11612303 0.003118235 0.09656637 0.3299041
0000d0 14 b1 ef bd c8 de 00 be 8b 33 c1 3e 60 59 48 bc
       -0.11703697 -0.12584984 0.37734637 -0.01222834
0000e0 21 62 3f 3e 62 fa 79 be d7 f0 63 3e 22 a4 31 3c
       0.18689777 -0.2441192 0.22259842 0.010842355
0000f0 40 8b 4d bb ff f2 96 3d 68 f3 8d 3e 1c 41 16 3e
       -0.0031363517 0.073705666 0.27724767 0.14673275
000100 4c 51 60 3d dd f9 c4 3e 8f 8f 38 3e 61 ef b1 3d
       0.05476503 0.3847188 0.18023513 0.08688236
000110 8c 67 b0 3e d0 51 ed 3b 7b 2f 4a 3d d6 fb 05 3d
       0.34454 0.007242419 0.049361687 0.032710873
000120 e0 fa 4d 3c 40 42 d4 3e 9d a6 90 3e 0c 33 af 3e
       0.01257202 0.41456795 0.28252116 0.34218633
000130 ab af 28 3e cd 36 3c 3d a2 9e 25 3d 7b a6 eb 3d
       0.16473262 0.0459507 0.040434487 0.11506363
000140 7d 76 6b 3b 0b 9c ec be cf b1 a9 3e 56 75 88 3e
       0.0035928779 -0.462128 0.3314347 0.2665202
000150 df d0 ac bd c1 1b 7e 3c c5 19 16 be 4e 27 33 3f
       -0.084382765 0.015509547 -0.14658268 0.6998185
000160 ed 91 bf 3e 9a 83 0b 3e d9 32 08 be 72 05 53 39
       0.3741602 0.13624421 -0.13300647 0.00020124557
000170 8d 72 f6 3d db 95 cf 3e 16 d9 97 bb 42 87 98 bd
       0.120335676 0.40544018 -0.004634033 -0.074476734
000180 d2 a7 fc bd 7c d9 8d be 03 c5 0d 3f a2 ac d3 bc
       -0.12336697 -0.2770499 0.5537874 -0.025839154
000190 90 07 ec bc 77 5d 03 3d 41 25 00 bd 51 a8 53 bd
       -0.0288122 0.032071557 -0.031285528 -0.05167419
0001a0 96 bb a6 bc 7f 1a 04 3f a3 13 05 3e 8b dc 8c 3d
       -0.02035312 0.5160293 0.12995772 0.06878003
0001b0 fa fd 7f bd da 3c cd 3e d8 fc 27 bc ca 59 d9 bd
       -0.06249807 0.4008549 -0.010253154 -0.10612829
0001c0 08 f5 f1 3d 5c 0b 5e 3b 2b be 6f bd 9e 4b 56 3d
       0.11814314 0.0033881282 -0.058530968 0.052318208
0001d0 af 18 ee 3e 21 3b f8 3e 96 a6 37 3c c8 f1 eb bb
       0.46503207 0.48482612 0.011209151 -0.0072004534
0001e0 f8 32 47 bc 0e 8b 0a bf 62 a4 23 3e 77 56 0f 3e
       -0.012158148 -0.5411843 0.15980676 0.13997827
0001f0 28 c1 f4 be ef 73 99 3e 17 97 c5 3d 5b 07 8c bb
       -0.47803617 0.29971263 0.09647959 -0.004273338
000200 e8 20 b5 bd cc db 3b bd e0 2b 7f 3d 3f 59 91 3d
       -0.08844167 -0.04586391 0.0622977 0.070971005
000210 89 34 b6 3d 61 57 97 bc 87 c6 b1 bd b6 80 28 3e
       0.08896739 -0.018474283 -0.08680444 0.1645535
000220 1a 39 ca be 21 cd 93 be 2b 6e f6 bc 76 60 a2 bc
       -0.3949669 -0.28867438 -0.030081829 -0.019821387
000230 51 4e b6 be ea 44 97 be 95 00 07 bd ec 06 57 bd
       -0.35606626 -0.29544765 -0.03295954 -0.052496836
000240 20 77 88 be 93 07 60 3e fb 90 09 be c8 48 28 be
       -0.26653385 0.2187789 -0.13434212 -0.16434014
000250 c1 20 83 be f8 46 89 bc 54 6f f5 bd ae b6 a0 bd
       -0.25610927 -0.016757473 -0.11984125 -0.078473434
000260 b4 3e 1b 3d c6 e3 8e be 43 af 71 be c8 31 80 3c
       0.037901595 -0.27908152 -0.23602013 0.015648738
000270 ca 07 1c bd 4f 73 bb 3c 34 a3 18 3e 22 6c 97 3e
       -0.038093366 0.022882132 0.14906007 0.29574686
000280 a7 8e 39 be ef ce 0b be 53 cb 0b 3e 9a 46 75 3e
       -0.18120824 -0.13653158 0.13651781 0.23952714
000290 30 3e 7d 3c 41 6b bf bc a1 9d 54 3d f0 c2 93 bc
       0.015456721 -0.023366572 0.05190814 -0.01803729
0002a0 88 fa 89 3c 87 7d c0 3d aa f3 da 3d 29 4d 2f bd
       0.016843095 0.093989424 0.106910065 -0.042798195
0002b0 a0 92 c2 3b 49 65 f5 bd c9 09 de be 2e 23 8c bc
       0.005937889 -0.11982209 -0.4336684 -0.017106619
0002c0 85 9d 8e bd 2f 00 77 be 59 39 91 3d 22 ae 95 3d
       -0.06963638 -0.24121164 0.07091016 0.07308604
0002d0 1e 5f a5 3d db 64 16 bd ea a1 12 3e 98 8d 39 bd
       0.08074783 -0.036717277 0.14319578 -0.04530105
0002e0 10 0f 87 bd 97 3f 53 bd 21 f2 16 3d 32 d9 e8 bd
       -0.0659467 -0.051574316 0.036852006 -0.11369552
0002f0 9f fa 2d be 44 af 38 bd 60 04 87 be ff 2d e3 3d
       -0.16990136 -0.04508902 -0.26370525 0.110927574
000300 f1 99 df 3c 18 6f 9d be 0d 4e 63 3d 94 a8 d2 3e
       0.027295085 -0.3074882 0.055494357 0.4114424
000310 a4 53 3b be 33 6b ab 3d 9d 6d b9 bd 79 19 9d 3d
       -0.18293625 0.08370056 -0.0905411 0.07670874
000320 6e 98 c6 3c 54 5d 8d 3d cf 97 aa 3d 18 4c 65 be
       0.024242606 0.069025666 0.083297364 -0.22392309
000330 fd 22 60 bd ef 1f bd 3d 09 ae b8 3d 1c e5 d3 bc
       -0.054720867 0.092346065 0.090175696 -0.025866084
000340 c9 ac a6 3e 9c 9e eb 3c 82 03 5e 3e b2 8e 40 3c
       0.325537 0.028762154 0.21681026 0.011752771
000350 70 72 28 be 02 3b 6d bd a1 2b 51 3c 08 a5 0e 3d
       -0.16449904 -0.057917602 0.01276675 0.034825355
000360 85 21 8b be e3 8f 16 be 4b b0 27 3e c8 f1 8c bc
       -0.2717401 -0.14703326 0.16375844 -0.017205134
000370 15 ad 82 3c 89 ed 2c be b0 33 93 3c e5 52 8c 3d
       0.015951673 -0.16887487 0.017968982 0.068517484
000380 42 e5 5c bd 61 bc e3 bd fb 10 04 3e 68 ca 9f 3e
       -0.053929575 -0.11119915 0.12897103 0.3120911
000390 ac ea 20 3d 70 e5 4a bd 4f e0 b4 3c 50 aa 7e bd
       0.0392863 -0.049535215 0.022079615 -0.06217414
0003a0 8a 45 a4 bb 57 7f 25 bd 04 59 13 bc 3f 56 b7 bc
       -0.0050131725 -0.040404644 -0.008993391 -0.022379993
0003b0 7c 6e df 3b c6 11 38 3e 88 d1 a9 3d 5a b1 b5 bc
       0.0068185907 0.1797553 0.08291918 -0.022179294
0003c0 08 65 70 3e 8c a4 f4 be 2b fb 69 3d 01 21 00 3e
       0.2347604 -0.4778179 0.057124298 0.1251259
0003d0 53 fd ad be 53 e2 a9 be db 89 89 be f2 9e 7b 3d
       -0.33982334 -0.33180484 -0.26862988 0.06143088
0003e0 0a b2 e5 3d a4 be 02 3d c5 50 e6 bc 02 f7 cf bb
       0.11215599 0.03192009 -0.028114686 -0.0063465843
0003f0 4c 94 a1 3c ea b3 7d bd 24 e5 be bd 14 49 18 be
       0.019724034 -0.061939158 -0.09321049 -0.14871627

fc2.bias f4 [84]
000000 22 0a 43 40 4d a8 8c 3d fa 39 26 40 da e0 f9 3e
       3.0474935 0.06868038 2.5972886 0.4880436
000010 7a af 96 bf 86 a1 be 3f 74 4e cc bd e2 fb 6e 40
       -1.1772301 1.4893043 -0.09975901 3.7341237
000020 96 d7 0f 40 07 f8 d1 be 75 43 1c be 38 77 a1 3e
       2.2475333 -0.41009542 -0.15260108 0.3153627
000030 f1 45 65 be 1f ba 2c bf 56 ed 06 bd 9d 3c 39 be
       -0.22389962 -0.674715 -0.032941185 -0.18089528
000040 4b f8 2f bf 1d 4b 42 be b1 72 71 bf da 03 25 40
       -0.6873824 -0.18973966 -0.9431563 2.57836
000050 2d af 4d 40 05 89 80 bf 31 07 28 40 5a ce 3a be
       3.213817 -1.0041815 2.625439 -0.1824278
000060 e7 c2 fd 3f 5e 1e b0 3f 8d 33 18 40 78 3f e7 3f
       1.9825104 1.3759267 2.3781464 1.8066244
000070 b6 5f b2 be c2 8c a1 be 12 98 9a bd 60 80 95 3f
       -0.34838647 -0.31552702 -0.07548536 1.1679802
000080 56 c8 64 3f 1d 68 62 be 84 bf ce 3f dc f9 85 40
       0.8936819 -0.22110029 1.6152196 4.1867504
000090 8c 24 03 3e 84 94 6f be a6 e7 9d be 12 49 90 bf
       0.1280691 -0.23396498 -0.30840796 -1.1272299
0000a0 28 df 6a 3f 27 22 b4 be 5d 93 be 3e 87 02 d4 3f
       0.9174676 -0.35182306 0.37221804 1.6563271
0000b0 1c 4e c3 be 79 ac a2 bd 20 dd 76 be 6e 75 af 40
       -0.3814553 -0.07943053 -0.2410779 5.4830847
0000c0 aa 15 ae be 66 78 6e bc b8 b2 2c 40 a8 f8 10 3f
       -0.34000903 -0.014555072 2.6984081 0.5662942
0000d0 f3 51 0c bf 0d 20 29 be 19 91 12 bf 7e a9 07 40
       -0.54812545 -0.16516133 -0.5725265 2.11972
0000e0 a9 3a 33 be 6c 76 d7 be 4f 14 00 bf 3a 54 0d bf
       -0.17502846 -0.42082536 -0.5003099 -0.55206645
0000f0 cd 5e 25 bf 96 83 a1 be 51 b8 a2 3e 09 df 62 be
       -0.6459778 -0.31545705 0.31781247 -0.22155394
000100 28 6d 0d 3e 00 2b 78 bd fc 17 f3 be b0 b4 7f 3f
       0.13811171 -0.060587883 -0.47479236 0.9988508
000110 94 6f 33 bf c5 7d 35 bf d3 f6 c4 be cd 20 81 bd
       -0.7009213 -0.70895034 -0.38469562 -0.063050844
000120 0c ab 28 3f 97 00 23 3f 80 18 fc bd a6 ee 1f bf
       0.65885997 0.63672775 -0.123093605 -0.62473524
000130 f4 56 e1 be d4 78 9d 3c e1 55 23 3f 99 4c d0 be
       -0.44011652 0.019222654 0.63802916 -0.4068344
000140 e1 2a 45 bf b4 69 50 be 6d 70 8e be fa e9 59 bd
       -0.77018553 -0.20352823 -0.2782015 -0.053201653

fc3.weight f4 [10, 84]
000000 05 63 97 bf 07 f5 64 3c 0e 18 41 be 08 c1 9d be
       -1.1827093 0.013974435 -0.18856832 -0.30811334
000010 9d 06 6a bd d6 52 6a be 2b e9 37 bf 22 83 88 be
       -0.057135213 -0.22883162 -0.7184016 -0.26662546
000020 e0 13 12 bf 83 05 e8 be a8 65 3e be 67 78 d5 bf
       -0.57061577 -0.45316705 -0.18593466 -1.6677369
000030 16 c8 4f bf fa c3 d0 bf 77 2e 1a 3c ca 5d 23 be
       -0.8116468 -1.6309807 0.009410492 -0.15953746
000040 1a 47 1c c0 5d 37 e0 3d ef ba 10 bf ba d7 0b be
       -2.4418397 0.1094806 -0.5653524 -0.13656512
000050 8d 7e a1 bd 6b b4 af bf 81 82 e7 bd fa 6a 7e be
       -0.07885466 -1.3726934 -0.113041885 -0.24845496
000060 d2 98 e1 bd 30 41 46 bb 4e a7 16 be 08 e0 09 bf
       -0.11015476 -0.0030251257 -0.14712259 -0.5385747
000070 cc 24 5f be 37 2e 6a be b7 60 70 3d 17 19 a6 bf
       -0.2179138 -0.22869192 0.058685984 -1.2976407
000080 a8 fc fa be 3c 72 b3 bd 97 84 d6 bc b7 1e 3a be
       -0.49020886 -0.08762023 -0.02618627 -0.1817578
000090 47 02 f9 bf 34 08 ec be dc f6 2f bf 9a 40 b8 bf
       -1.945382 -0.46100008 -0.6873605 -1.4394715
0000a0 df a2 76 bf 56 76 8c be d0 8b 99 bf fc 31 d4 be
       -0.9634227 -0.27434033 -1.1995792 -0.41444385
0000b0 d3 85 9c bf 90 db 1e be 86 46 17 be e6 04 77 be
       -1.222834 -0.15513444 -0.14772996 -0.24122962
0000c0 b8 a1 8d bf ed 03 40 bc 5e de 42 bc 68 41 82 bf
       -1.1064978 -0.011719686 -0.011893837 -1.017621
0000d0 87 0f 61 c0 ac 3c 39 bd b0 28 7b bf 12 67 00 be
       -3.5165727 -0.045223877 -0.9810896 -0.12539318
0000e0 0f 52 97 bd 79 d5 1c bf d4 02 cf bf b1 ea 32 bf
       -0.07388698 -0.61263233 -1.6172738 -0.6988936
0000f0 bd 0c 0d c0 74 c6 37 bf 79 4a 1e bf dc cf 05 be
       -2.2039025 -0.7178719 -0.61832386 -0.13067573
000100 0b 33 44 bd 76 19 d7 be dc 38 71 bf 7c 76 96 bf
       -0.04790024 -0.42011613 -0.94227386 -1.1754909
000110 d1 61 aa bf f4 dd be bf fe c6 a4 bd 1a 46 ce bf
       -1.3311101 -1.4911485 -0.08045767 -1.6115143
000120 bc e5 7c bf 23 02 cf bf 62 cb 09 be 70 35 be bf
       -0.98788047 -1.6172527 -0.1345649 -1.4860058
000130 13 7a ff be 4e 51 c7 bc 82 1c ae be 96 55 99 be
       -0.49897823 -0.024330761 -0.34006125 -0.2994811
000140 fa 21 ef bf a7 f5 9f bb 1c 8d c7 be f7 22 33 bf
       -1.8682244 -0.004881579 -0.38974845 -0.6997523
000150 fb c8 f3 bf 21 0d 00 be ab 0a 35 be 61 79 84 bf
       -1.9045709 -0.12505008 -0.17679851 -1.0349542
000160 d7 93 d0 3d 54 20 eb bc d6 33 21 bf cc 25 47 be
       0.10184448 -0.028701939 -0.6296972 -0.19448012
000170 27 fc e2 be 1a 60 70 bf 8e 9b 76 be e9 8c 57 be
       -0.44333002 -0.9389664 -0.24082777 -0.21049847
000180 21 42 76 bf 74 0e a0 bf 50 0c 06 3c dd 86 2f be
       -0.96194655 -1.2504411 0.0081816465 -0.1714129
000190 36 5a 2e c0 41 c2 c6 bd 19 d9 88 bf 69 e1 08 be
       -2.724256 -0.0970502 -1.0691253 -0.13367237
0001a0 e6 ad 56 bd 44 86 99 bf f3 7a df bd 75 c0 33 be
       -0.052411936 -1.19941 -0.109121226 -0.17553885
0001b0 68 a0 2e be 3a 38 14 bd c4 52 53 bd a0 d3 91 be
       -0.17053378 -0.036186434 -0.051592603 -0.2848177
0001c0 eb e2 6c bf f3 db 89 be a8 4f 31 3b a2 37 fd be
       -0.9253375 -0.2692562 0.0027055535 -0.49456507
0001d0 e4 bd 4a bf 2d 0d 9a be bf a9 92 bd 4f 79 e2 bd
       -0.79196 -0.30088177 -0.07161283 -0.11058294
0001e0 90 2d 35 bf 20 3f 27 bf 95 07 0f bf 12 69 b2 bf
       -0.7077265 -0.65330696 -0.55870944 -1.3938315
0001f0 49 7a 87 bf ff 28 ff be e6 f1 0f bf 31 86 94 bf
       -1.0584193 -0.49835965 -0.5622848 -1.1603452
000200 08 01 60 bf 9d 5b 3c be b2 bf 19 be 84 18 78 be
       -0.87501574 -0.18394323 -0.15014532 -0.24228102
000210 3d c3 3e bf 8d 91 11 be 91 8f 11 be 05 00 8d be
       -0.7451666 -0.1421568 -0.14214922 -0.27539077
000220 df 45 fe bf cf 37 6b be db f2 c7 be 6d fd 48 be
       -1.9865073 -0.22970508 -0.39052472 -0.19627924
000230 56 2d 11 bd 5f eb ad bf 85 82 a8 bf e0 bd 48 bf
       -0.035443626 -1.3587455 -1.3164831 -0.78414726
000240 62 0e a6 be 55 46 e6 be c4 fb a8 bf e7 af b0 bd
       -0.32432848 -0.44975534 -1.3201833 -0.08627301
000250 98 4b 24 bd 83 78 f0 be 3b b2 de bf 55 74 46 c0
       -0.040111154 -0.46966943 -1.7398142 -3.1008503
000260 82 c2 3a bf 6a 98 01 c0 0b ee 8f be b9 17 69 bf
       -0.72953045 -2.0249276 -0.281113 -0.9105182
000270 ee 6d 74 be df 36 ec bf 4c 64 f9 bd 25 91 fe be
       -0.2387006 -1.8454245 -0.12177333 -0.4972011
000280 56 0c a5 bf 39 ed 5a bd 31 d3 99 bd b7 8d bc be
       -1.289439 -0.05344889 -0.07510985 -0.3682687
000290 e6 64 12 c0 27 ad 8e bc 1c 12 2e be 88 9e 18 bf
       -2.2874084 -0.01741655 -0.16999096 -0.596169
0002a0 76 99 ea be ff b0 46 3d 59 05 64 be 31 48 c3 be
       -0.45820206 0.04850864 -0.22267665 -0.38141015
0002b0 60 db 31 bd 15 0a 88 be 6d 65 95 bc 1b 4d 23 be
       -0.043422103 -0.26570192 -0.01823684 -0.15947382
0002c0 5f 9f 12 bf 34 a3 88 bf 62 16 17 be 76 27 cb bf
       -0.5727443 -1.0674806 -0.14754632 -1.5871418
0002d0 af 80 a7 be 85 e5 88 bf a0 3b d8 bd 62 ad d0 bd
       -0.32715365 -1.0695044 -0.105582476 -0.1018932
0002e0 1d 5f 4b bf c3 03 aa be fe 72 82 bf 06 b8 f5 bd
       -0.79442006 -0.33205995 -1.0191343 -0.1199799
0002f0 d7 1b d3 bd 00 47 18 c0 26 50 13 bd 27 b1 e2 bd
       -0.103080444 -2.3793335 -0.035965107 -0.110689454
000300 43 ad 25 be 06 c2 08 be 0f 4b 20 be 9e a1 3b bf
       -0.16179375 -0.13355264 -0.15653633 -0.73293483
000310 91 a6 8f bf f2 db 42 bd 3b 46 e0 be 46 e6 a4 bd
       -1.1222707 -0.047573037 -0.43803582 -0.08051734
000320 3c 6e 82 bf dc 1e fd be 03 5e 50 bd 77 32 e1 bc
       -1.0189891 -0.49437606 -0.050870907 -0.027489884
000330 c9 ca 8f be f7 c9 a4 be 30 cb 86 bf 70 f9 01 c0
       -0.280844 -0.32185337 -1.0530758 -2.0308495
000340 69 23 a8 bf 25 f1 82 be 4d 73 43 bf 0b 01 4b bf
       -1.3135806 -0.25574604 -0.7634781 -0.79298466
000350 54 51 00 c0 c7 78 5b be 7d b5 99 be f8 38 2a bd
       -2.0049639 -0.21432792 -0.30021277 -0.041558236
000360 db 40 65 bf e7 01 d1 3d b7 ef 87 3c 2d 95 d0 bf
       -0.89552087 0.10205441 0.016593797 -1.6295525
000370 0d de 38 c0 31 c9 08 be 42 c9 81 bf 8c 7d bb bd
       -2.888553 -0.13357998 -1.0139544 -0.091548055
000380 15 3d 06 be 9f 56 1d bf 95 2b 02 c0 7d f6 fe bf
       -0.13109238 -0.614603 -2.03391 -1.9918972
000390 5f ce 24 c0 38 ff 63 bf 47 61 80 bf 58 fd 89 be
       -2.575096 -0.8906131 -1.0029687 -0.26951098
0003a0 36 3f 44 be c9 5d e7 be db 90 9c bf c2 3b d1 bf
       -0.19164738 -0.4518874 -1.2231706 -1.6346362
0003b0 88 28 80 bf c9 d5 b8 be 70 18 9c be 1a 2e 53 bf
       -1.0012369 -0.36100605 -0.30487394 -0.8249222
0003c0 4d c9 f6 be 5f e7 d1 bf 74 63 41 3d 1c 8b 1d bf
       -0.48200455 -1.6398734 0.047213987 -0.6154039
0003d0 0a 58 8f bf b5 39 3f bc 40 01 79 bf a1 7b de bf
       -1.1198742 -0.011671473 -0.9726753 -1.7381479
0003e0 fb cb ef bf ed 93 76 bd 78 c5 f1 be 2a 18 8b bf
       -1.8734125 -0.060199667 -0.4722097 -1.0866749
0003f0 bc 23 21 bf 3e ef a9 3b 6a 80 c1 bd eb 96 83 be
       -0.6294515 0.0051859906 -0.09448321 -0.2570108

fc3.bias f4 [10]
000000 a1 91 16 bf 99 c6 50 bf 86 dc 50 bf 02 5d 6d 3f
       -0.5881596 -0.81553036 -0.8158649 0.92720044
000010 34 b7 92 3f 92 44 b7 be 13 7d 48 3f ea 29 65 bf
       1.1462159 -0.35794502 0.7831585 -0.8951708
000020 e8 5d 14 3f 4e e5 19 3d
       0.5795579 0.037572198
